…
        [2025-08-14 05:54:24,625918][I][wordplay/trainer:251] Model size: num_params=85003776
        [2025-08-14 05:54:24,637219][I][wordplay/model:445] num decayed parameter tensors: 50, with 86,557,440 parameters
        [2025-08-14 05:54:24,637872][I][wordplay/model:449] num non-decayed parameter tensors: 25, with 19,200 parameters
        [2025-08-14 05:54:24,638937][I][wordplay/model:465] using fused AdamW: True
        [2025-08-14 05:54:25,662969][C][wordplay/trainer:322] RANK=0:devid='cuda:0'
        [2025-08-14 05:54:25,748890][I][wordplay/trainer:361] • self.model=OptimizedModule(
          (_orig_mod): GPT(
            (transformer): ModuleDict(
              (wte): Embedding(65, 768)
              (wpe): Embedding(2048, 768)
              (drop): Dropout(p=0.0, inplace=False)
              (h): ModuleList(
                (0-11): 12 x Block(
                  (ln_1): LayerNorm()
                  (attn): CausalSelfAttention(
                    (c_attn): Linear(in_features=768, out_features=2304, bias=False)
                    (c_proj): Linear(in_features=768, out_features=768, bias=False)
                    (attn_dropout): Dropout(p=0.0, inplace=False)
                    (resid_dropout): Dropout(p=0.0, inplace=False)
                  )
                  (ln_2): LayerNorm()
                  (mlp): MLP(
                    (c_fc): Linear(in_features=768, out_features=3072, bias=False)
                    (act_fn): GELU(approximate='none')
                    (c_proj): Linear(in_features=3072, out_features=768, bias=False)
                    (dropout): Dropout(p=0.0, inplace=False)
                  )
                )
              )
              (ln_f): LayerNorm()
            )
            (lm_head): Linear(in_features=768, out_features=65, bias=False)
          )
        )
        [2025-08-14 05:54:25,752694][I][wordplay/trainer:362] • self.grad_scaler=<torch.cuda.amp.grad_scaler.GradScaler object at 0x14da15e752b0>
        [2025-08-14 05:54:25,753734][I][wordplay/trainer:363] • self.model_engine=DistributedDataParallel(
          (module): OptimizedModule(
            (_orig_mod): GPT(
              (transformer): ModuleDict(
                (wte): Embedding(65, 768)
                (wpe): Embedding(2048, 768)
                (drop): Dropout(p=0.0, inplace=False)
                (h): ModuleList(
                  (0-11): 12 x Block(
                    (ln_1): LayerNorm()
                    (attn): CausalSelfAttention(
                      (c_attn): Linear(in_features=768, out_features=2304, bias=False)
                      (c_proj): Linear(in_features=768, out_features=768, bias=False)
                      (attn_dropout): Dropout(p=0.0, inplace=False)
                      (resid_dropout): Dropout(p=0.0, inplace=False)
                    )
                    (ln_2): LayerNorm()
                    (mlp): MLP(
                      (c_fc): Linear(in_features=768, out_features=3072, bias=False)
                      (act_fn): GELU(approximate='none')
                      (c_proj): Linear(in_features=3072, out_features=768, bias=False)
                      (dropout): Dropout(p=0.0, inplace=False)
                    )
                  )
                )
                (ln_f): LayerNorm()
              )
              (lm_head): Linear(in_features=768, out_features=65, bias=False)
            )
          )
        )
        [2025-08-14 05:54:25,757292][I][wordplay/trainer:364] • self.optimizer=AdamW (
        Parameter Group 0
            amsgrad: False
            betas: (0.9, 0.95)
            capturable: False
            differentiable: False
            eps: 1e-08
            foreach: None
            fused: True
            lr: 0.0006
…
