…
 4, 2, kernel_size=(4, 4))\n#model = model.to(dtype)\nmodel.to(device=dev)\n# model.to(torch.bfloat16)\n\nfrom torchinfo import summary\n\nlogger.info(f\"\\n{summary(model, input_size=(batch_size, 3, 32, 32))}\")\n\n\n[2025-07-25 16:08:28,414533][I][ipykernel_67898/1906784419:8:__main__] \n\n==========================================================================================\n\nLayer (type:depth-idx)                   Output Shape              Param #\n\n==========================================================================================\n\nClassifier                               [256, 10]                 --\n\n├─Conv2d: 1-1                            [256, 32, 32, 32]         128\n\n├─LayerNorm: 1-2                         [256, 32, 32, 32]         65,536\n\n├─Sequential: 1-3                        [256, 256, 4, 4]          --\n\n│    └─ConvNextBlock: 2-1                [256, 32, 32, 32]         --\n\n│    │    └─Conv2d: 3-1                  [256, 32, 32, 32]         544\n\n│    │    └─LayerNorm: 3-2               [256, 32, 32, 32]         65,536\n\n│    │    └─Conv2d: 3-3                  [256, 128, 32, 32]        4,224\n\n│    │    └─Conv2d: 3-4                  [256, 32, 32, 32]         4,128\n\n│    └─ConvNextBlock: 2-2                [256, 32, 32, 32]         --\n\n│    │    └─Conv2d: 3-5                  [256, 32, 32, 32]         544\n\n│    │    └─LayerNorm: 3-6               [256, 32, 32, 32]         65,536\n\n│    │    └─Conv2d: 3-7                  [256, 128, 32, 32]        4,224\n\n│    │    └─Conv2d: 3-8                  [256, 32, 32, 32]         4,128\n\n│    └─Downsampler: 2-3                  [256, 64, 16, 16]         --\n\n│    │    └─LayerNorm: 3-9               [256, 32, 32, 32]         65,536\n\n│    │    └─Conv2d: 3-10                 [256, 64, 16, 16]         8,256\n\n│    └─ConvNextBlock: 2-4                [256, 64, 16, 16]         --\n\n│    │    └─Conv2d: 3-11                 [256, 64, 16, 16]         1,088\n\n│    │    └─LayerNorm: 3-12              [256, 64, 16, 16]         32,768\n\n│    │    └─Conv2d: 3-13                 [256, 256, 16, 16]        16,640\n\n│    │    └─Conv2d: 3-14                 [256, 64, 16, 16]         16,448\n\n│    └─ConvNextBlock: 2-5                [256, 64, 16, 16]         --\n\n│    │    └─Conv2d: 3-15                 [256, 64, 16, 16]         1,088\n\n│    │    └─LayerNorm: 3-16              [256, 64, 16, 16]         32,768\n\n│    │    └─Conv2d: 3-17                 [256, 256, 16, 16]        16,640\n\n│    │    └─Conv2d: 3-18                 [256, 64, 16, 16]         16,448\n\n│    └─Downsampler: 2-6                  [256, 128, 8, 8]          --\n\n│    │    └─LayerNorm: 3-19              [256, 64, 16, 16]         32,768\n\n│    │    └─Conv2d: 3-20                 [256, 128, 8, 8]          32,896\n\n│    └─ConvNextBlock: 2-7                [256, 128, 8, 8]          --\n\n│    │    └─Conv2d: 3-21                 [256, 128, 8, 8]          2,176\n\n│    │    └─LayerNorm: 3-22              [256, 128, 8, 8]          16,384\n\n│    │    └─Conv2d: 3-23                 [256, 512, 8, 8]          66,048\n\n│    │    └─Conv2d: 3-24                 [256, 128, 8, 8]          65,664\n\n│    └─ConvNextBlock: 2-8                [256, 128, 8, 8]          --\n\n│    │    └─Conv2d: 3-25                 [256, 128, 8, 8]          2,176\n\n│    │    └─LayerNorm: 3-26              [256, 128, 8, 8]          16,384\n\n│    │    └─Conv2d: 3-27                 [256, 512, 8, 8]          66,048\n\n│    │    └─Conv2d: 3-28                 [256, 128, 8, 8]          65,664\n\n│    └─Downsampler: 2-9                  [256, 256, 4, 4]          --\n\n│    │    └─LayerNorm: 3-29              [256, 128, 8, 8]          16,384\n\n│    │    └─Conv2d: 3-30                 [256, 256, 4, 4]          131,328\n\n│    └─ConvNextBlock: 2-10               [256, 256, 4, 4]          --\n\n│    │    └─Conv2d: 3-31                 [256, 256, 4, 4]          4,352\n\n│    │    └─LayerNorm: 3-32              [256, 256, 4, 4]          8,192\n\n│    │    └─Conv2d: 3-33                 [256, 1024, 4, 4]         263,168\n\n│    │    └─Conv2d: 3-34                 [256, 256, 4, 4]          262,400\n\n│    └─ConvNextBlock: 2-11               [256, 256, 4, 4]          --\n\n│    │    └─Conv2d: 3-35                 [256, 256, 4, 4]          4,352\n\n│    │    └─LayerNorm: 3-36              [256, 256, 4, 4]          8,192\n\n│    │    └─Conv2d: 3-37                 [256, 1024, 4, 4]         263,168\n\n│    │    └─Conv2d: 3-38                 [256, 256, 4, 4]          262,400\n\n├─Sequential: 1-4                        [256, 10]                 --\n\n│    └─Flatten: 2-12                     [256, 256]                --\n\n│    └─LayerNorm: 2-13                   [256, 256]                512\n\n│    └─Linear: 2-14                      [256, 10]                 2,570\n\n==========================================================================================\n\nTotal params: 2,015,434\n\nTrainable params: 2,015,434\n\nNon-trainable params: 0\n\nTotal mult-adds (Units.GIGABYTES): 19.63\n\n==========================================================================================\n\nInput size (MB): 3.15\n\nForward/backward pass size (MB): 2072.53\n\nParams siz
…
