…
hape) makes this label-like:\n        # return nn.functional.avg_pool2d(x, kernel_size=x.shape[-2:]).reshape((-1,10))\n\n\nfrom torchinfo import summary\n\nmodel = Classifier(32, 4, 2, kernel_size=(2, 2))\nmodel.to(device=dev)\nprint(f\"\\n{summary(model, input_size=(batch_size, 3, 32, 32))}\")\n\n==========================================================================================\nLayer (type:depth-idx)                   Output Shape              Param #\n==========================================================================================\nClassifier                               [16, 10]                  --\n├─Conv2d: 1-1                            [16, 32, 32, 32]          128\n├─LayerNorm: 1-2                         [16, 32, 32, 32]          65,536\n├─Sequential: 1-3                        [16, 256, 4, 4]           --\n│    └─ConvNextBlock: 2-1                [16, 32, 32, 32]          --\n│    │    └─Conv2d: 3-1                  [16, 32, 32, 32]          160\n│    │    └─LayerNorm: 3-2               [16, 32, 32, 32]          65,536\n│    │    └─Conv2d: 3-3                  [16, 128, 32, 32]         4,224\n│    │    └─Conv2d: 3-4                  [16, 32, 32, 32]          4,128\n│    └─ConvNextBlock: 2-2                [16, 32, 32, 32]          --\n│    │    └─Conv2d: 3-5                  [16, 32, 32, 32]          160\n│    │    └─LayerNorm: 3-6               [16, 32, 32, 32]          65,536\n│    │    └─Conv2d: 3-7                  [16, 128, 32, 32]         4,224\n│    │    └─Conv2d: 3-8                  [16, 32, 32, 32]          4,128\n│    └─Downsampler: 2-3                  [16, 64, 16, 16]          --\n│    │    └─LayerNorm: 3-9               [16, 32, 32, 32]          65,536\n│    │    └─Conv2d: 3-10                 [16, 64, 16, 16]          8,256\n│    └─ConvNextBlock: 2-4                [16, 64, 16, 16]          --\n│    │    └─Conv2d: 3-11                 [16, 64, 16, 16]          320\n│    │    └─LayerNorm: 3-12              [16, 64, 16, 16]          32,768\n│    │    └─Conv2d: 3-13                 [16, 256, 16, 16]         16,640\n│    │    └─Conv2d: 3-14                 [16, 64, 16, 16]          16,448\n│    └─ConvNextBlock: 2-5                [16, 64, 16, 16]          --\n│    │    └─Conv2d: 3-15                 [16, 64, 16, 16]          320\n│    │    └─LayerNorm: 3-16              [16, 64, 16, 16]          32,768\n│    │    └─Conv2d: 3-17                 [16, 256, 16, 16]         16,640\n│    │    └─Conv2d: 3-18                 [16, 64, 16, 16]          16,448\n│    └─Downsampler: 2-6                  [16, 128, 8, 8]           --\n│    │    └─LayerNorm: 3-19              [16, 64, 16, 16]          32,768\n│    │    └─Conv2d: 3-20                 [16, 128, 8, 8]           32,896\n│    └─ConvNextBlock: 2-7                [16, 128, 8, 8]           --\n│    │    └─Conv2d: 3-21                 [16, 128, 8, 8]           640\n│    │    └─LayerNorm: 3-22              [16, 128, 8, 8]           16,384\n│    │    └─Conv2d: 3-23                 [16, 512, 8, 8]           66,048\n│    │    └─Conv2d: 3-24                 [16, 128, 8, 8]           65,664\n│    └─ConvNextBlock: 2-8                [16, 128, 8, 8]           --\n│    │    └─Conv2d: 3-25                 [16, 128, 8, 8]           640\n│    │    └─LayerNorm: 3-26              [16, 128, 8, 8]           16,384\n│    │    └─Conv2d: 3-27                 [16, 512, 8, 8]           66,048\n│    │    └─Conv2d: 3-28                 [16, 128, 8, 8]           65,664\n│    └─Downsampler: 2-9                  [16, 256, 4, 4]           --\n│    │    └─LayerNorm: 3-29              [16, 128, 8, 8]           16,384\n│    │    └─Conv2d: 3-30                 [16, 256, 4, 4]           131,328\n│    └─ConvNextBlock: 2-10               [16, 256, 4, 4]           --\n│    │    └─Conv2d: 3-31                 [16, 256, 4, 4]           1,280\n│    │    └─LayerNorm: 3-32              [16, 256, 4, 4]           8,192\n│    │    └─Conv2d: 3-33                 [16, 1024, 4, 4]          263,168\n│    │    └─Conv2d: 3-34                 [16, 256, 4, 4]           262,400\n│    └─ConvNextBlock: 2-11               [16, 256, 4, 4]           --\n│    │    └─Conv2d: 3-35                 [16, 256, 4, 4]           1,280\n│    │    └─LayerNorm: 3-36              [16, 256, 4, 4]           8,192\n│    │    └─Conv2d: 3-37                 [16, 1024, 4, 4]          263,168\n│    │    └─Conv2d: 3-38                 [16, 256, 4, 4]           262,400\n├─Sequential: 1-4                        [16, 10]                  --\n│    └─Flatten: 2-12                     [16, 256]                 --\n│    └─LayerNorm: 2-13                   [16, 256]                 512\n│    └─Linear: 2-14                      [16, 10]                  2,570\n==========================================================================================\nTotal params: 2,003,914\nTrainable params: 2,003,914\nNon-trainable params: 0\nTotal mult-adds (Units.GIGABYTES): 1.20\n==========================================================================================\nInput size (MB): 0.20\nForward/backward pass size (MB): 129.53\nParams size (MB): 8.02\nEstima
…
