…
his label-like:\n        # return nn.functional.avg_pool2d(x, kernel_size=x.shape[-2:]).reshape((-1,10))\n\n\n!pip install torchinfo # if not on Polaris\n\n\nmodel = Classifier(32, 4, 2).to(device=dev)\n\nfrom torchinfo import summary\n\nprint(summary(model, input_size=(batch_size, 3, 32, 32)))\n\n==========================================================================================\nLayer (type:depth-idx)                   Output Shape              Param #\n==========================================================================================\nClassifier                               [128, 10]                 --\n├─Conv2d: 1-1                            [128, 32, 32, 32]         128\n├─LayerNorm: 1-2                         [128, 32, 32, 32]         65,536\n├─Sequential: 1-3                        [128, 256, 4, 4]          --\n│    └─ConvNextBlock: 2-1                [128, 32, 32, 32]         --\n│    │    └─Conv2d: 3-1                  [128, 32, 32, 32]         1,600\n│    │    └─LayerNorm: 3-2               [128, 32, 32, 32]         65,536\n│    │    └─Conv2d: 3-3                  [128, 128, 32, 32]        4,224\n│    │    └─Conv2d: 3-4                  [128, 32, 32, 32]         4,128\n│    └─ConvNextBlock: 2-2                [128, 32, 32, 32]         --\n│    │    └─Conv2d: 3-5                  [128, 32, 32, 32]         1,600\n│    │    └─LayerNorm: 3-6               [128, 32, 32, 32]         65,536\n│    │    └─Conv2d: 3-7                  [128, 128, 32, 32]        4,224\n│    │    └─Conv2d: 3-8                  [128, 32, 32, 32]         4,128\n│    └─Downsampler: 2-3                  [128, 64, 16, 16]         --\n│    │    └─LayerNorm: 3-9               [128, 32, 32, 32]         65,536\n│    │    └─Conv2d: 3-10                 [128, 64, 16, 16]         8,256\n│    └─ConvNextBlock: 2-4                [128, 64, 16, 16]         --\n│    │    └─Conv2d: 3-11                 [128, 64, 16, 16]         3,200\n│    │    └─LayerNorm: 3-12              [128, 64, 16, 16]         32,768\n│    │    └─Conv2d: 3-13                 [128, 256, 16, 16]        16,640\n│    │    └─Conv2d: 3-14                 [128, 64, 16, 16]         16,448\n│    └─ConvNextBlock: 2-5                [128, 64, 16, 16]         --\n│    │    └─Conv2d: 3-15                 [128, 64, 16, 16]         3,200\n│    │    └─LayerNorm: 3-16              [128, 64, 16, 16]         32,768\n│    │    └─Conv2d: 3-17                 [128, 256, 16, 16]        16,640\n│    │    └─Conv2d: 3-18                 [128, 64, 16, 16]         16,448\n│    └─Downsampler: 2-6                  [128, 128, 8, 8]          --\n│    │    └─LayerNorm: 3-19              [128, 64, 16, 16]         32,768\n│    │    └─Conv2d: 3-20                 [128, 128, 8, 8]          32,896\n│    └─ConvNextBlock: 2-7                [128, 128, 8, 8]          --\n│    │    └─Conv2d: 3-21                 [128, 128, 8, 8]          6,400\n│    │    └─LayerNorm: 3-22              [128, 128, 8, 8]          16,384\n│    │    └─Conv2d: 3-23                 [128, 512, 8, 8]          66,048\n│    │    └─Conv2d: 3-24                 [128, 128, 8, 8]          65,664\n│    └─ConvNextBlock: 2-8                [128, 128, 8, 8]          --\n│    │    └─Conv2d: 3-25                 [128, 128, 8, 8]          6,400\n│    │    └─LayerNorm: 3-26              [128, 128, 8, 8]          16,384\n│    │    └─Conv2d: 3-27                 [128, 512, 8, 8]          66,048\n│    │    └─Conv2d: 3-28                 [128, 128, 8, 8]          65,664\n│    └─Downsampler: 2-9                  [128, 256, 4, 4]          --\n│    │    └─LayerNorm: 3-29              [128, 128, 8, 8]          16,384\n│    │    └─Conv2d: 3-30                 [128, 256, 4, 4]          131,328\n│    └─ConvNextBlock: 2-10               [128, 256, 4, 4]          --\n│    │    └─Conv2d: 3-31                 [128, 256, 4, 4]          12,800\n│    │    └─LayerNorm: 3-32              [128, 256, 4, 4]          8,192\n│    │    └─Conv2d: 3-33                 [128, 1024, 4, 4]         263,168\n│    │    └─Conv2d: 3-34                 [128, 256, 4, 4]          262,400\n│    └─ConvNextBlock: 2-11               [128, 256, 4, 4]          --\n│    │    └─Conv2d: 3-35                 [128, 256, 4, 4]          12,800\n│    │    └─LayerNorm: 3-36              [128, 256, 4, 4]          8,192\n│    │    └─Conv2d: 3-37                 [128, 1024, 4, 4]         263,168\n│    │    └─Conv2d: 3-38                 [128, 256, 4, 4]          262,400\n├─Sequential: 1-4                        [128, 10]                 --\n│    └─Flatten: 2-12                     [128, 256]                --\n│    └─LayerNorm: 2-13                   [128, 256]                512\n│    └─Linear: 2-14                      [128, 10]                 2,570\n==========================================================================================\nTotal params: 2,047,114\nTrainable params: 2,047,114\nNon-trainable params: 0\nTotal mult-adds (Units.GIGABYTES): 10.34\n==========================================================================================\nInput size (MB): 1.57\nForward/backward pass size (MB): 1036.27\nParams size (MB): 8.19\nEsti
…
